…
2019-04-17 15:23:15.811327: I tensorflow/core/common_runtime/gpu/gpu_device.cc:1120] Creating TensorFlow device (/device:GPU:3) -> (device: 3, name: TITAN Xp, pci bus id: 0000:42:00.0, compute capability: 6.1)
/usr/lib64/python2.7/site-packages/keras/engine/training.py:490: UserWarning: Discrepancy between trainable weights and collected trainable weights, did you set `model.trainable` without calling `model.compile` after ?
  'Discrepancy between trainable weights and collected trainable'
_________________________________________________________________
Layer (type)                 Output Shape              Param #   
=================================================================
dense_1 (Dense)              (None, 512)               51712     
_________________________________________________________________
leaky_re_lu_1 (LeakyReLU)    (None, 512)               0         
_________________________________________________________________
batch_normalization_1 (Batch (None, 512)               2048      
_________________________________________________________________
dense_2 (Dense)              (None, 512)               262656    
_________________________________________________________________
leaky_re_lu_2 (LeakyReLU)    (None, 512)               0         
_________________________________________________________________
batch_normalization_2 (Batch (None, 512)               2048      
_________________________________________________________________
dense_3 (Dense)              (None, 1)                 513       
=================================================================
Total params: 318,977
Trainable params: 316,929
Non-trainable params: 2,048
_________________________________________________________________
_________________________________________________________________
Layer (type)                 Output Shape              Param #   
=================================================================
flatten_1 (Flatten)          (None, 4096)              0         
_________________________________________________________________
dense_4 (Dense)              (None, 512)               2097664   
_________________________________________________________________
leaky_re_lu_3 (LeakyReLU)    (None, 512)               0         
_________________________________________________________________
batch_normalization_3 (Batch (None, 512)               2048      
_________________________________________________________________
dense_5 (Dense)              (None, 512)               262656    
_________________________________________________________________
leaky_re_lu_4 (LeakyReLU)    (None, 512)               0         
_________________________________________________________________
batch_normalization_4 (Batch (None, 512)               2048      
_________________________________________________________________
dense_6 (Dense)              (None, 100)               51300     
=================================================================
Total params: 2,415,716
Trainable params: 2,413,668
Non-trainable params: 2,048
_________________________________________________________________
_________________________________________________________________
Layer (type)                 Output Shape              Param #   
=================================================================
dense_7 (Dense)              (None, 512)               51712     
_________________________________________________________________
leaky_re_lu_5 (LeakyReLU)    (None, 512)               0         
_________________________________________________________________
batch_normalization_5 (Batch (None, 512)               2048      
_________________________________________________________________
dense_8 (Dense)              (None, 512)               262656    
_________________________________________________________________
leaky_re_lu_6 (LeakyReLU)    (None, 512)               0         
_________________________________________________________________
batch_normalization_6 (Batch (None, 512)               2048      
_________________________________________________________________
dense_9 (Dense)              (None, 4096)              2101248   
_________________________________________________________________
reshape_1 (Reshape)          (None, 64, 64, 1)         0         
=================================================================
Total params: 2,419,712
Trainable params: 2,417,664
Non-trainable params: 2,048
_________________________________________________________________
0 [D loss: 0.761459, acc: 56.25%] [G loss: 1.147175, mse: 1.147471]
1 [D loss: 0.789659, acc: 50.00%] [G loss: 1.136738, mse: 1.137115]
2 [D loss: 0.784109, acc: 46.88%] [G loss: 1.120425, mse: 1.120730]
…
